model/mix_base/2_Dense/pytorch_model.bin (torch, 67111 bytes, 2 tensors)

linear.weight f4 [128, 128]
00000000: 6303 e73c 72df 5fbc 1b5b 213c 6f4a 5c3d
00000010: 07f2 903d 1f99 3a3d a7a9 a43d 9cd9 5b3d
00000020: 0474 91bd ff81 e4bc 13f2 adbb 441a 0c3d
00000030: debd 863d 883e 7f3d caba 54bc 7b42 9b3d
00000040: 46cf 053d 2f0f 903c c2eb 86bd 3763 0abd
00000050: a93d 9f3d d533 a53c 8671 94bb 9cf3 ad3c
00000060: ae3b 91bd 99ac f6bc 8731 b4bd fb6e 0fbd
00000070: 5915 213c f484 5bbb dbf9 69bd 9f95 49bd
00000080: 4d02 7a3c e38a 40bd 4b7a 203d ed24 cf3c
00000090: 3972 0d3d 77df cfbb 63f6 a43c f222 eb3b
000000a0: be3a d6ba 3e25 bc3c dc0c 64bc cf9f 013d
000000b0: ad1e 2cbd 0630 653b 2be9 36bd e160 3abd
000000c0: 9ce4 aa3d 53b6 3e3d 0cd6 8f3b b490 c0bc
000000d0: c854 b5bc cf97 70bd f038 8c3d 2452 fa3b
000000e0: fa62 5ebd af99 873d 0695 3cbd 1083 25bd
000000f0: ee56 81bd b40b 61bd 8634 3f3d ea5d 38bd
00000100: 0c75 44bd 1485 633d a4d9 07bd cb9d 883d
00000110: f491 a6bd ae08 12bd f5c8 263d ecc8 e03c
00000120: af49 aebd 11eb 04bd 5fc4 1cbc 035a 73bd
00000130: 1e89 9dbc c71d 53bd 869b aebd fb65 56bd
00000140: aee0 beb9 3c6c 523d 60c6 f8bc 44b8 13bd
00000150: 0a19 283d eb3a 663d a0fb adbc db2f d73c
00000160: eef9 bbbd 3119 8abd 1a0d 25bd 4f3d 4c3d
00000170: 9878 a43d 75ed b33d 0698 fcbc d921 153d
00000180: ea51 a2bd b200 babd e14d 733c d0be 363d
00000190: 5dee a93d a88a 973c bc99 38bd e067 d1bc
000001a0: e4d2 4c3c f39f ad3c 502a c33c 7ffd a23d
000001b0: 7f23 1b3d 93df fc3c 27e3 093d a827 16bc
000001c0: f5ef 6ebc 16d3 853d 0193 a63d 278e 9ebc
000001d0: 0a5d af3d e343 4ebd c1ef abbc 6f45 87bb
000001e0: 9e65 7c3d a1bd 8fbd 343e 14bd db55 0c3d
000001f0: d504 643c 47d6 adbc 39da d33c 7419 1dbb
00000200: 0b13 403d ed70 b53d 0ecc 7d3d a001 5c3d
00000210: 0ed2 c3bc d133 643d 015b 5dbd 20a3 91bd
00000220: 8dd0 4abc d508 8f3d 0500 ba3b b72c 8fbd
00000230: 7b7c 4cbd 864c 173d 3c69 cabc fe55 f53c
00000240: 7f06 253d fccc bc3d 17d4 4b3c 43fd 943d
00000250: 8fb6 edbc 9beb 2fbd de7f 203d aa89 263d
00000260: 098d 35bd e913 82bb 7b2b 02bd cec4 0bbd
00000270: 09a6 a7bc e92b 1a3c eb85 97bd 2ab2 16bd
00000280: 2649 d8bb e876 903d 55a5 29bd ea1b fcbc
00000290: 8be7 a3bd 5590 f33c 7d7d 8fbd f8f4 ab3d
000002a0: a992 f93c 36c4 7c3d b28d 4b3d de41 803d
000002b0: f02f afbd 190c 07bd 2d44 673c 3386 4b3c
000002c0: 072c 143d 55d1 32bd 0937 51bc f20f a63b
000002d0: 5ff2 433d bae5 963d b319 f8bc 63fa 7fba
000002e0: 475c 8c3c 4821 a6bc d51b 64bd a079 3dbc
000002f0: 8d1b d73b 3bb5 9c3d 2fa1 963c 0a89 553d
00000300: 0283 a13d 98c3 75bd 8e8e 313c 5e26 45bc
00000310: 333c 28bd 20fa 96bd ce3d 8fbd ee03 1d3c
00000320: af3e 993d 0e34 193d ca25 a6bd e55e 97bc
00000330: df74 5f3d 3606 69bd a313 7fbc cf1f 433d
00000340: 74de 763d 050c 86bd 0fa9 a9bd 5586 a4bd
00000350: dc85 65bc 85a2 3dbd 352a 243b de6d 84bd
00000360: 2873 2bbd 745b ba3c 8832 273c ea3e 44bd
00000370: a5f7 5c3d ba07 8abb 6425 f1ba 59c6 a9bd
00000380: 090f 9dbd 0ea1 833c c024 2abb 7819 9d3d
00000390: f0c1 1e3c 442d 60bd 048b 6ebc 6c01 1ebd
000003a0: eb33 b63c bfb0 2e3d 7dab f3ba a82d 15bd
000003b0: 8041 2bbd a656 78bd 1136 f3bc e79d 023c
000003c0: 9686 a43d 3753 90b6 7731 18bd 83a4 1c3b
000003d0: f844 8fbd 71a4 7cbd 601e ecbc 157d 693d
000003e0: 7a07 96bd e272 ff3c fcbd 85bd 6299 ef3c
000003f0: 7874 84bd ca63 f63c 6840 08bd 571c f4bb
0.028199857 -0.013664113 0.009848381 0.053781923 0.07077413 0.045556184 0.08040171 0.053674325
-0.07102206 -0.027894018 -0.0053083985 0.034204736 0.06579183 0.062315494 -0.012983987 0.075810395
0.032668374 0.017585365 -0.06587936 -0.033786025 0.077754326 0.020166317 -0.0045301346 0.021234326
-0.07091461 -0.030111598 -0.08798509 -0.03501795 0.00983175 -0.0033495994 -0.057123046 -0.049214955
0.015259338 -0.047007453 0.039179128 0.025286162 0.03453276 -0.0063437778 0.020137018 0.0071757967
-0.0016344411 0.022966977 -0.013919082 0.031646546 -0.042021442 0.003497125 -0.04465596 -0.045502547
0.08344385 0.046560597 0.00438953 -0.0235065 -0.022135153 -0.058738526 0.068467975 0.0076391865
-0.05429361 0.0662111 -0.046040557 -0.040408194 -0.06315409 -0.0549428 0.04668095 -0.04501144
-0.047963187 0.055546835 -0.033166543 0.066707216 -0.08133307 -0.03565281 0.04071899 0.027439557
-0.08510148 -0.03245074 -0.009568303 -0.059412014 -0.019230422 -0.05154207 -0.085257575 -0.05234335
-0.00036407023 0.05137275 -0.03036803 -0.0360644 0.041039504 0.056208532 -0.021238148 0.026267936
-0.0917853 -0.06743086 -0.040295698 0.049863156 0.08030814 0.08785526 -0.03083421 0.036409233
-0.0792578 -0.09082164 0.014850111 0.044615567 0.08297417 0.018498734 -0.045068488 -0.025562227
0.012501452 0.021194434 0.023823887 0.07958507 0.03787565 0.030868327 0.033663895 -0.009164728
-0.014583577 0.06534402 0.081335075 -0.019354893 0.08562668 -0.05035771 -0.020988347 -0.00412815
0.061620347 -0.07018591 -0.036192134 0.034261566 0.013917168 -0.02122034 0.025860893 -0.002397147
0.04689316 0.088594295 0.06196218 0.053712487 -0.023903873 0.05571348 -0.054041866 -0.07111192
-0.012378824 0.069841065 0.005676272 -0.069909506 -0.0499234 0.036938213 -0.024708383 0.02994823
0.0402894 0.09218785 0.012440703 0.07274868 -0.029017715 -0.0429493 0.039184444 0.04065863
-0.044323955 -0.0039696586 -0.031779747 -0.034123234 -0.020464914 0.009409883 -0.0739859 -0.036791004
-0.006600517 0.070539296 -0.04141744 -0.03077503 -0.08003148 0.029731909 -0.07006357 0.083963335
0.03046544 0.06171056 0.049695678 0.06262563 -0.08554065 -0.03297052 0.0141153755 0.012422132
0.0361748 -0.043656666 -0.012769469 0.005067819 0.047838565 0.073680356 -0.030285692 -0.00097647886
0.017133845 -0.020279542 -0.055690605 -0.011564642 0.0065645636 0.076517545 0.018387405 0.052132644
0.07886316 -0.060000986 0.01083721 -0.012033073 -0.041073035 -0.07371926 -0.0699421 0.009583456
0.07482659 0.03740316 -0.081126764 -0.018477866 0.054554816 -0.05689069 -0.015568647 0.047637757
0.06027074 -0.06545261 -0.082841985 -0.08033434 -0.014008965 -0.04629757 0.0025049571 -0.06466268
-0.04185787 0.022748686 0.010204919 -0.047911562 0.05394711 -0.004212347 -0.0018397984 -0.08289785
-0.07668883 0.016068008 -0.0025961846 0.076708734 0.009689793 -0.05473067 -0.014559511 -0.038575575
0.022241553 0.042649027 -0.0018590536 -0.036420494 -0.041810513 -0.06062951 -0.029688867 0.007972217
0.08033483 -4.301222e-06 -0.03715655 0.0023901768 -0.069955766 -0.06168026 -0.028823078 0.057004053
-0.07325645 0.03118271 -0.06530377 0.029247943 -0.06467527 0.03007688 -0.033264548 -0.0074496674

linear.bias f4 [128]
00000000: 3fce c7bd 12a8 9e3d 0b94 6a3d 0e1a 933d
00000010: 2ede 933d 3ac5 78bb efdd 76bc fcbb 57bd
00000020: d13a 2dbd bb13 75bd f667 94bb 1c45 8abd
00000030: 4a26 07bd f93a 91bd ebbe 643d b126 a53d
00000040: 109a f23c 75a1 8abc 2649 16bd 72b3 35bc
00000050: cdf0 223c edc9 173d 102e 913d a759 b2bb
00000060: 69ba ec3c 2410 c23c 612b b43d 6576 21bd
00000070: a28b 8a3c 743c 8e3d 6d97 753d 8354 083d
00000080: 041b 543c a565 b83d fb41 c5bd aaf3 543c
00000090: a383 aabd 73a5 8ebd 80b8 6239 6fab 6d3d
000000a0: c4b6 353d d2d6 33bd 5f1f 92bd 9b06 f7bc
000000b0: 9004 30bd 006f b13d ff8d 2bbc fda3 d5bb
000000c0: 2040 7e3d d50d 54bd e068 bfbd 5462 a33c
000000d0: a9b8 8a3d 303c 9cbd 5573 fd3c 0ca8 8bbd
000000e0: 9309 9cbd 3bfc 173d 617c cebb bc4e 53bd
000000f0: 725d 733d a206 213d 5787 efbc 31e3 9f3d
00000100: 6e89 70bd 5222 36bd cb08 12bc b9ee b53d
00000110: 6146 4ebd 24da 90bd 0372 56bd fbc0 01bc
00000120: 6d02 a1bd 7461 293d bb3a d53c 1cf9 463d
00000130: 5027 a73d b4a8 613d 9f6e 8a3d 762e 823d
00000140: f224 afbc adb4 53bd c961 b33c 557e ca3d
00000150: 1cf0 3abd 7ec8 813d 9f7d 293d d6e6 99bd
00000160: f337 cb3c 0a9a 933d 3dce 85bc b195 a33d
00000170: c4a7 74bd 4829 93bd 2581 36bd 9a0d a23d
00000180: fda2 b53c 167a 90bd e870 85bd a13b 923d
00000190: 9127 cdbd 6a35 a93d 3d0c 5a3d b75e 84bd
000001a0: 664b 5dbc 9c9f 093d 3de5 61bd d5f0 a03c
000001b0: d380 a1bd f801 67bc cf36 66bd 433d 043d
000001c0: d77c 02bb c777 1abd 02e6 093d d10b 15bd
000001d0: 6212 bb3d 5030 99bc 421e 8d3a 42f5 8b3d
000001e0: 1392 3cbd 170e 273d 62cd 733d ed89 d23c
000001f0: 857c 65bd fd0a 993c c9d9 06bc 311a 263d
-0.09756135 0.077469006 0.05727009 0.07182704 0.07220112 -0.0037959353 -0.0150675615 -0.05266951
-0.04229242 -0.05983327 -0.0045289947 -0.06751463 -0.0329955 -0.07091326 0.055846136 0.080640204
0.029614478 -0.016922692 -0.036690854 -0.011090146 0.009945107 0.037057806 0.07088864 -0.0054428163
0.028897481 0.023689337 0.08797336 -0.03941955 0.016912285 0.06945124 0.059958864 0.03328372
0.012945894 0.09003762 -0.096317254 0.012997547 -0.08325889 -0.06965151 0.00021621771 0.05802482
0.044363752 -0.04390604 -0.0713489 -0.030154517 -0.0429731 0.0866375 -0.010470866 -0.006519793
0.062072873 -0.051771004 -0.09346175 0.019944347 0.067735024 -0.07628667 0.030938784 -0.06819162
-0.07619014 0.03710578 -0.006301448 -0.05158876 0.05941529 0.039312966 -0.02923934 0.07807005
-0.058724813 -0.044466324 -0.008913229 0.08883423 -0.050360087 -0.07072857 -0.052354824 -0.007919545
-0.07861791 0.041352704 0.026028981 0.048577413 0.08161795 0.05509253 0.067593805 0.06356518
-0.021379922 -0.051685978 0.021897214 0.09887377 -0.045639142 0.06337069 0.041379567 -0.075147316
0.024806952 0.07207115 -0.016333694 0.07987536 -0.059730306 -0.07185608 -0.044556756 0.079127505
0.022172445 -0.07054536 -0.06515676 0.071402796 -0.10017312 0.08262141 0.053234328 -0.06463378
-0.013506746 0.03359948 -0.05515026 0.019646088 -0.078858994 -0.0140995905 -0.056204613 0.032284986
-0.0019910836 -0.037711885 0.03366662 -0.036388222 0.091343656 -0.018699795 0.0010766464 0.068338886
-0.046037745 0.04078492 0.05952204 0.025700534 -0.056026954 0.018681997 -0.008230635 0.04055232
