model/checkpoints/sts-mix_base/62000/2_Dense/pytorch_model.bin (torch, 67111 bytes, 2 tensors)

linear.weight f4 [128, 128]
0.006417895 -0.013163489 0.004717194 0.05482572 0.0723283 0.059607293 0.066150516 0.060955364
-0.06602835 -0.024674688 0.011199436 0.039637223 0.06773895 0.06886657 -0.01074879 0.069734894
0.034395315 0.016656425 -0.05586233 -0.023405718 0.0808577 0.015050774 -0.004636544 0.025423106
-0.06644418 -0.050464917 -0.091659665 -0.029068848 0.012329675 -0.0041320426 -0.069408886 -0.048281536
0.019507436 -0.02551447 0.047192503 0.041920725 0.03158678 0.0022402694 0.01345011 0.010715253
-0.00631019 0.010991868 -0.0076341005 0.030463077 -0.040310927 -0.014313755 -0.047929555 -0.044464264
0.08821932 0.052251942 0.0027323475 -0.022169538 -0.032970663 -0.05754209 0.05125438 0.0076940786
-0.044696912 0.067359835 -0.046069246 -0.039125472 -0.05934827 -0.04604858 0.06432757 -0.07892699
-0.03252704 0.061034355 -0.018576918 0.06962103 -0.07571872 -0.035297766 0.038347203 0.060231365
-0.085579894 -0.020352146 -0.029989012 -0.039772224 -0.01384225 -0.048239317 -0.07934569 -0.061074853
0.003986974 0.05912902 -0.017607577 -0.02665447 0.040057294 0.044746805 -0.033792764 0.0075246287
-0.067657754 -0.0910737 -0.027113048 0.067256294 0.08444498 0.0813862 -0.03495776 0.04345206
-0.07633501 -0.06787769 0.019265007 0.04769619 0.08310951 0.022359824 -0.04349939 -0.037904914
0.011349035 0.03808763 0.016441206 0.09317739 0.03810277 0.0043306584 0.053663213 0.00087169185
-0.008697193 0.05674126 0.1192901 -0.018426722 0.095217876 -0.054972693 -0.015751721 0.0011202586
0.045734923 -0.0630631 -0.036253046 0.039146498 0.019060595 -0.025480472 0.03334464 -0.015262234
0.04813537 0.0908597 0.07396772 0.0594279 0.014051336 0.051328246 -0.058036417 -0.07631315
-0.0148432525 0.078132026 -0.002414664 -0.07510546 -0.038748443 0.029074455 -0.024532378 0.032881275
0.043144707 0.0928325 0.022129923 0.065764815 -0.03565885 -0.03996984 0.042439695 0.047371764
-0.0397949 -0.016725779 -0.026457747 -0.035966434 0.0026456458 0.018804746 -0.078153655 -0.03386305
0.009402046 0.066073895 -0.04090081 -0.039454438 -0.09682547 0.047100447 -0.04085316 0.09489355
0.01725897 0.06695512 0.05005125 0.057549953 -0.061297677 -0.03936836 0.0072033308 0.0069455765
0.03991015 -0.042782135 -0.010468901 0.015130976 0.045951575 0.09573201 -0.022368966 -0.0077038025
0.017967727 0.004492378 -0.059123605 -0.012982647 -0.008082531 0.06179041 0.01225262 0.047307942
0.074409686 -0.07470224 0.005361788 -0.016114948 -0.033310145 -0.07598573 -0.06977727 0.011288987
0.076075904 0.030956406 -0.08957188 -0.027994936 0.05291048 -0.054572262 -0.01452644 0.033335682
0.06492237 -0.06839418 -0.0844295 -0.09061506 -0.015434801 -0.032532327 0.016675638 -0.05517569
-0.015830126 0.007957521 0.0072241537 -0.050793763 0.05941756 0.013268355 0.013861442 -0.08551876
-0.07186464 0.018078644 -0.0021163912 0.078393094 0.0097224 -0.05730279 -0.005226411 -0.038215254
0.031220991 0.061697226 -0.0114997 -0.035697803 -0.037661266 -0.08789719 -0.03532404 0.006984903
0.09410769 0.002246517 -0.016146561 0.00059698673 -0.07988232 -0.055863354 -0.022914473 0.059856415
-0.078850314 0.024006354 -0.0664126 0.009281748 -0.055686384 0.0177208 -0.024064438 -0.0075334515
00000000: 354d d23b adab 57bc b192 9a3b ef90 603d
00000010: dc20 943d c726 743d ec79 873d 55ac 793d
00000020: df39 87bd 9222 cabc d77d 373c a45a 223d
00000030: b8ba 8a3d eb09 8d3d b11b 30bc 2bd1 8e3d
00000040: 1ae2 0c3d 0e73 883c e6cf 64bd 59bd bfbc
00000050: b998 a53d 8697 763c 26ee 97bb 1e44 d03c
00000060: e313 88bd 4db4 4ebd 10b8 bbbd cb21 eebc
00000070: 6802 4a3c 1666 87bb 3f26 8ebd dcc2 45bd
00000080: 0fce 9f3c b903 d1bc ed4c 413d 11b5 2b3d
00000090: 2461 013d 7cd1 123b da5d 5c3c 078f 2f3c
000000a0: b6c5 cebb 3c17 343c 7a27 fabb b48d f93c
000000b0: 121d 25bd 3d84 6abc c851 44bd 2920 36bd
000000c0: 55ac b43d 2206 563d 2f11 333b e49c b5bc
000000d0: 3f0c 07bd 41b1 6bbd 1df0 513d 9c1e fc3b
000000e0: 1c14 37bd f4f3 893d 1bb3 3cbd 0842 20bd
000000f0: 2c17 73bd 709d 3cbd 2cbe 833d 79a4 a1bd
00000100: 133b 05bd 29ff 793d 9f2e 98bc 7895 8e3d
00000110: 6b12 9bbd 6494 10bd f511 1d3d 2ab5 763d
00000120: 8344 afbd 8bb9 a6bc 84ab f5bc 33e8 22bd
00000130: 9bca 62bc 9796 45bd fe7f a2bd a029 7abd
00000140: 29a5 823b 4531 723d c43d 90bc 7a5a dabc
00000150: 1e13 243d 6d48 373d 486a 0abd 2991 f63b
00000160: 2690 8abd d984 babd 2f1c debc abbd 893d
00000170: 7df1 ac3d cfad a63d de2f 0fbd cafa 313d
00000180: 8855 9cbd 7503 8bbd a6d1 9d3c 155d 433d
00000190: 5235 aa3d f32b b73c 6b2c 32bd 2f42 1bbd
000001a0: 4ef1 393c c601 1c3d b5af 863c cad3 be3d
000001b0: a611 1c3d 32e8 8d3b f5cd 5b3d 4082 643a
000001c0: ac7e 0ebc 8669 683d 5e4e f43d a3f3 96bc
000001d0: 9701 c33d 0c2b 61bd c109 81bc a4d5 923a
000001e0: 8b54 3b3d 3a27 81bd 137e 14bd 1458 203d
000001f0: f724 9c3c 6cbc d0bc 6494 083d 730e 7abc
00000200: 9829 453d a714 ba3d 637c 973d ab6a 733d
00000210: 9337 663c 913d 523d 98b7 6dbd 124a 9cbd
00000220: 1d31 73bc af03 a03d 573f 1ebb e4d0 99bd
00000230: b0b6 1ebd 8d2d ee3c 20f8 c8bc 84ae 063d
00000240: 81b8 303d f71e be3d d049 b53c b4af 863d
00000250: 040f 12bd 6ab7 23bd 3fd5 2d3d e508 423d
00000260: faff 22bd 8004 89bc ebbd d8bc 8a51 13bd
00000270: 9262 2d3b 690c 9a3c 060f a0bd fbb3 0abd
00000280: 0a0b 1a3c c051 873d 9c87 27bd fa9a 21bd
00000290: 6f4c c6bd 66ec 403d a555 27bd 8d57 c23d
000002a0: af62 8d3c c41f 893d 8a02 4d3d 80b9 6b3d
000002b0: 4613 7bbd b840 21bd eb09 ec3b b897 e33b
000002c0: d378 233d 523c 2fbd c185 2bbc eae7 773c
000002d0: b837 3c3d 250f c43d 1f3f b7bc 2e70 fcbb
000002e0: 0e31 933c cc34 933b 982b 72bd 2bb5 54bc
000002f0: 986c 04bc f117 7d3d 37bf 483c f9c5 413d
00000300: 1b64 983d 7dfd 98bd f0b1 af3b 7f03 84bc
00000310: 3870 08bd 689e 9bbd 63e7 8ebd 71f5 383c
00000320: afcd 9b3d 4a98 fd3c 7671 b7bd a355 e5bc
00000330: a9b8 583d 2a87 5fbd 4e00 6ebc ff8a 083d
00000340: 05f6 843d 3f12 8cbd 60e9 acbd 6394 b9bd
00000350: 3fe2 7cbc 9e40 05bd 599b 883c e8ff 61bd
00000360: 2eae 81bc 4360 023c 98b8 ec3b 1f0d 50bd
00000370: d45f 733d 8463 593c 1a1b 633c 7624 afbd
00000380: c52d 93bd aa19 943c 27b3 0abb 8f8c a03d
00000390: b44a 1f3c 55b6 6abd 5042 abbb 9987 1cbd
000003a0: 2ac3 ff3c 3bb6 7c3d 3d69 3cbc dc37 12bd
000003b0: b342 1abd 7103 b4bd f1af 10bd 9de1 e43b
000003c0: 88bb c03d 4d3a 133b cb45 84bc 1a7f 1c3a
000003d0: 5799 a3bd f9d0 64bd 22b7 bbbc 002c 753d
000003e0: 467c a1bd f9a8 c43c 5403 88bd 7912 183c
000003f0: 6817 64bd 362b 913c c922 c5bc 2cdb f6bb

linear.bias f4 [128]
-0.09312814 0.07745455 0.055603523 0.07194823 0.07119582 -0.007218505 -0.015829565 -0.045925803
-0.038739543 -0.059073806 -0.0016792656 -0.06798063 -0.028051272 -0.071616516 0.058884453 0.07671527
0.03139812 -0.01712626 -0.035203125 -0.013831999 0.0124688 0.040459115 0.073309824 -0.0026496584
0.022453653 0.027466109 0.08082794 -0.04145853 0.02082503 0.06905339 0.059556816 0.036658045
0.010267116 0.08557267 -0.09454621 0.015676538 -0.07950139 -0.06575007 -0.00549377 0.054227546
0.04372725 -0.04025987 -0.07392839 -0.027276693 -0.038466055 0.08082108 -0.013058281 -0.007275496
0.062662534 -0.049621362 -0.089478046 0.016459787 0.07012121 -0.07216753 0.035464257 -0.064102836
-0.07565813 0.035791494 -0.008547847 -0.051565543 0.060773756 0.041698627 -0.02570381 0.07882704
-0.05448175 -0.046897143 -0.0132667925 0.092356324 -0.052322745 -0.0666934 -0.055946667 -0.0072216387
-0.07627486 0.042211838 0.026456505 0.046712037 0.07556938 0.055669155 0.073523186 0.057836473
-0.018602679 -0.052924167 0.0233706 0.092752084 -0.042501118 0.068334095 0.039645318 -0.07628198
0.025646923 0.0689686 -0.0215874 0.07684407 -0.063627176 -0.071329236 -0.043956995 0.07463548
0.019203497 -0.073428325 -0.07082814 0.07857498 -0.09396932 0.085727364 0.05462904 -0.065310806
-0.011224481 0.03406601 -0.053359427 0.019097889 -0.07377302 -0.01460575 -0.05388349 0.03193378
-0.001113348 -0.03323657 0.027518429 -0.034253076 0.08968689 -0.014752983 0.00036926172 0.06873055
-0.048099607 0.046262972 0.059385616 0.026175354 -0.052888304 0.017829921 -0.0037707908 0.034238458
00000000: f7b9 bebd 7ea0 9e3d 85c0 633d 9859 933d
00000010: 1dcf 913d 3589 ecbb 01ad 81bc b21c 3cbd
00000020: 5bad 1ebd 60f7 71bd ce1a dcba 6e39 8bbd
00000030: c8cb e5bc aeab 92bd d330 713d e51c 9d3d
00000040: 519b 003d 5f4c 8cbc 2731 10bd 9c9f 62bc
00000050: f049 4c3c 75b8 253d 7623 963d e4a5 2dbb
00000060: b9f0 b73c 9b00 e13c 1e89 a53d 6bd0 29bd
00000070: 4199 aa3c dd6b 8d3d d9f1 733d bf26 163d
00000080: 6837 283c b940 af3d 71a1 c1bd 156c 803c
00000090: a0d1 a2bd f9a7 86bd 1505 b4bb b41d 5e3d
000000a0: 581b 333d 89e7 24bd c567 97bd 5f73 dfbc
000000b0: 958e 1dbd 8685 a53d 66f2 55bc 4967 eebb
000000c0: 3755 803d c53f 4bbd 4440 b7bd add6 863c
000000d0: b59b 8f3d 92cc 93bd f842 113d 5948 83bd
000000e0: a6f2 9abd 1a9a 123d 450c 0cbc 6436 53bd
000000f0: e7ed 783d 2ecc 2a3d cc90 d2bc 1270 a13d
00000100: 4128 5fbd 3817 40bd f65c 59bc 5025 bd3d
00000110: 6050 56bd 8d96 88bd 5528 65bd 7fa3 ecbb
00000120: fe35 9cbd 52e6 2c3d 50bb d83c 1f55 3f3d
00000130: 1ec4 9a3d 5705 643d 5393 963d f0e5 6c3d
00000140: a564 98bc 03c7 58bd b373 bf3c cef4 bd3d
00000150: a715 2ebd bff2 8b3d 2163 223d ba39 9cbd
00000160: 7f19 d23c 693f 8d3d 0fd8 b0bc 6c60 9d3d
00000170: f74e 82bd 1015 92bd 400c 34bd 7dda 983d
00000180: a750 9d3c 9761 96bd 580e 91bd ebeb a03d
00000190: fd72 c0bd d491 af3d b3c2 5f3d acc1 85bd
000001a0: e3e6 37bc cd88 0b3d 6a8f 5abd 2d73 9c3c
000001b0: 4f16 97bd f54c 6fbc efb4 5cbd ffcc 023d
000001c0: c2ed 91ba 1223 08bd 546e e13c f44c 0cbd
000001d0: c3ad b73d 7fb6 71bc 7899 c139 9ac2 8c3d
000001e0: 1804 45bd 3e7e 3d3d 553e 733d b26d d63c
000001f0: 68a1 58bd 0e10 923c 5f1f 77bb a03d 0c3d
